…
[2025-05-08 12:47:38 finetune](data_finetune.py 343): INFO Train images: 27000 | Validation images: 3000
[2025-05-08 12:47:38 finetune](data_finetune.py 344): INFO Train Images Source: /home/pnair/spai/datasets
[2025-05-08 12:47:38 finetune](data_finetune.py 345): INFO Validation Images Source: /home/pnair/spai/datasets
[neptune] [info   ] Neptune initialized. Open in the app: https://app.neptune.ai/spai/beast-mode/e/BEAS-26
[2025-05-08 12:47:46 finetune](__main__.py 232): INFO Creating model:vit/finetune
[2025-05-08 12:47:49 finetune](__main__.py 235): INFO PatchBasedMFViT(
  (mfvit): MFViT(
    (vit): VisionTransformer(
      (patch_embed): PatchEmbed(
        (proj): Conv2d(3, 768, kernel_size=(16, 16), stride=(16, 16))
      )
      (pos_drop): Dropout(p=0.0, inplace=False)
      (blocks): ModuleList(
        (0): Block(
          (norm1): LayerNorm((768,), eps=1e-06, elementwise_affine=True)
          (attn): Attention(
            (qkv): Linear(in_features=768, out_features=2304, bias=False)
            (attn_drop): Dropout(p=0.0, inplace=False)
            (proj): Linear(in_features=768, out_features=768, bias=True)
            (proj_drop): Dropout(p=0.0, inplace=False)
          )
          (drop_path): Identity()
          (norm2): LayerNorm((768,), eps=1e-06, elementwise_affine=True)
          (mlp): Mlp(
            (fc1): Linear(in_features=768, out_features=3072, bias=True)
            (act): GELU(approximate='none')
            (fc2): Linear(in_features=3072, out_features=768, bias=True)
            (drop): Dropout(p=0.0, inplace=False)
          )
        )
        (1-11): 11 x Block(
          (norm1): LayerNorm((768,), eps=1e-06, elementwise_affine=True)
          (attn): Attention(
            (qkv): Linear(in_features=768, out_features=2304, bias=False)
            (attn_drop): Dropout(p=0.0, inplace=False)
            (proj): Linear(in_features=768, out_features=768, bias=True)
            (proj_drop): Dropout(p=0.0, inplace=False)
          )
          (drop_path): DropPath()
          (norm2): LayerNorm((768,), eps=1e-06, elementwise_affine=True)
          (mlp): Mlp(
            (fc1): Linear(in_features=768, out_features=3072, bias=True)
            (act): GELU(approximate='none')
            (fc2): Linear(in_features=3072, out_features=768, bias=True)
            (drop): Dropout(p=0.0, inplace=False)
          )
        )
      )
      (norm): Identity()
      (fc_norm): LayerNorm((768,), eps=1e-06, elementwise_affine=True)
      (cls_blocks): ModuleList(
        (0): Block(
          (norm1): LayerNorm((768,), eps=1e-06, elementwise_affine=True)
          (attn): Attention(
            (qkv): Linear(in_features=768, out_features=2304, bias=False)
            (attn_drop): Dropout(p=0.0, inplace=False)
            (proj): Linear(in_features=768, out_features=768, bias=True)
            (proj_drop): Dropout(p=0.0, inplace=False)
          )
          (drop_path): Identity()
          (norm2): LayerNorm((768,), eps=1e-06, elementwise_affine=True)
          (mlp): Mlp(
            (fc1): Linear(in_features=768, out_features=3072, bias=True)
            (act): GELU(approximate='none')
            (fc2): Linear(in_features=3072, out_features=768, bias=True)
            (drop): Dropout(p=0.0, inplace=False)
          )
        )
      )
      (cls_norm): Identity()
      (intermediate_fc_norm): ModuleList(
        (0-11): 12 x LayerNorm((768,), eps=1e-06, elementwise_affine=True)
      )
      (head): Linear(in_features=9216, out_features=2, bias=True)
    )
    (features_processor): FrequencyRestorationEstimator(
      (patch_projector): FeatureSpecificProjector(
        (projectors): ModuleList(
          (0-11): 12 x Projector(
            (norm1): LayerNorm((768,), eps=1e-05, elementwise_affine=True)
            (projector): Sequential(
              (0): Dropout(p=0.5, inplace=False)
              (1): Linear(in_features=768, out_features=1024, bias=True)
              (2): GELU(approximate='none')
              (3): Dropout(p=0.5, inplace=False)
              (4): Linear(in_features=1024, out_features=1024, bias=True)
              (5): Identity()
              (6): Dropout(p=0.5, inplace=False)
            )
            (norm2): LayerNorm((1024,), eps=1e-05, elementwise_affine=True)
          )
        )
      )
      (original_features_processor): FeatureImportanceProjector(
        (proj1): Projector(
          (norm1): Identity()
          (projector): Sequential(
            (0): Dropout(p=0.5, inplace=False)
            (1): Linear(in_features=2048, out_features=1024, bias=True)
            (2): GELU(approximate='none')
            (3): Dropout(p=0.5, inplace=False)
            (4): Linear(in_features=1024, out_features=1024, bias=True)
            (5): GELU(approximate='none')
            (6): Dropout(p=0.5, inplace=False)
          )
          (norm2): LayerNorm((1024,), eps=1e-05, elementwise_affine=True)
        )
        (proj2): Projector(
          (norm1): Identity()
          (projector): Sequential(
            (0): Dropout(p=0.5, inplace=False)
            (1): Linear(in_features=1024, out_features=1024, bias=True)
            (2): GELU(approximate='none')
            (3): Dropout(p=0.5, inplace=False)
            (4): Linear(in_features=1024, out_features=1024, bias=True)
            (5): GELU(approximate='none')
            (6): Dropout(p=0.5, inplace=False)
          )
          (norm2): LayerNorm((1024,), eps=1e-05, elementwise_affine=True)
        )
      )
    )
    (backbone_norm): Normalize(mean=(0.485, 0.456, 0.406), std=(0.229, 0.224, 0.225))
  )
  (attend): Softmax(dim=-1)
  (dropout): Dropout(p=0.5, inplace=False)
  (to_kv): Linear(in_features=1096, out_features=3072, bias=False)
  (to_out): Sequential(
    (0): Linear(in_features=1536, out_features=1096, bias=False)
    (1): Dropout(p=0.5, inplace=False)
  )
  (norm): LayerNorm((1096,), eps=1e-05, elementwise_affine=True)
  (cls_head): ClassificationHead(
    (head): Sequential(
      (0): Linear(in_features=1096, out_features=3288, bias=True)
      (1): ReLU()
      (2): Dropout(p=0.5, inplace=False)
      (3): Linear(in_features=3288, out_features=3288, bias=True)
      (4): ReLU()
      (5): Dropout(p=0.5, inplace=False)
      (6): Linear(in_features=3288, out_features=1, bias=True)
    )
  )
)
[2025-05-08 12:47:49 finetune](optimizer.py 80): INFO >>>>>>>>>> Build Optimizer for Fine-tuning Stage
[2025-05-08 12:47:49 finetune](optimizer.py 192): INFO Param groups = {
  "layer_13_decay": {
    "group_name": "layer_13_decay",
    "weight_decay": 0.05,
    "params": [
      "patch_aggregator",
      "mfvit.vit.cls_token",
      "mfvit.vit.pos_embed",
…
